saved/model.pt (torch, 10186 bytes, 3 tensors)

weight f4 [20, 16]
0	0xbed0e00c	-0.40795934
1	0x3f038aeb	0.51383847
2	0xbf0d8c40	-0.5529213
3	0x3e2c7f80	0.16845512
4	0xbe5d5907	-0.21615992
5	0x3e6c9a3d	0.23105712
6	0x3e20903f	0.15680026
7	0xbe488e03	-0.19585423
8	0xbe6874fe	-0.22700879
9	0x3e81536a	0.25258952
10	0x3ea4e919	0.3220909
11	0x3eb7bd86	0.35886782
12	0xbf0c968c	-0.54917216
13	0xbdb123f2	-0.08649434
14	0xbf1fc8ca	-0.62415755
15	0xbe566a2a	-0.20938936
16	0x3ec90930	0.39264822
17	0x3ee68619	0.45024183
18	0xbdd929e9	-0.10603697
19	0x3e2d49e4	0.16922718
20	0x3eafdfca	0.34350425
21	0xbe783ca8	-0.24241889
22	0xbe281554	-0.16414386
23	0xbd279e99	-0.040922735
24	0xbf18153f	-0.5940742
25	0x3e940ddd	0.28916827
26	0x3f1e9d92	0.61959183
27	0x3d9da029	0.07696564
28	0xbf38931c	-0.7209947
29	0x3eb5387c	0.35394657
30	0x3e45f52a	0.19331804
31	0xbf121657	-0.5706534
32	0xbd807eda	-0.06274195
33	0x3ec33e14	0.381333
34	0xbe7e26ca	-0.24819484
35	0xbe58a264	-0.21155697
36	0x3d92711e	0.07150482
37	0xbec77daa	-0.38963062
38	0xbee2b4f0	-0.4427867
39	0x3e416e8f	0.18889831
40	0x3d85f652	0.065411225
41	0xbf01bc58	-0.50678015
42	0x3e8b867c	0.2725104
43	0xbf085ad5	-0.532636
44	0xbe8b9f5e	-0.27270025
45	0xbd582429	-0.05276886
46	0x3f262a6f	0.649085
47	0x3e309bb0	0.1724689
48	0xbeee3c4e	-0.46530384
49	0xbede9fc0	-0.43481255
50	0xbe50e8b7	-0.20401274
51	0x3ccf14b9	0.025278436
52	0x3efc9843	0.49334916
53	0xbdc6f712	-0.09715094
54	0x3e99d74d	0.30047074
55	0xbe633d54	-0.22191364
56	0x3e78b0ba	0.24286166
57	0xbea4741e	-0.3211984
58	0x3c1388e6	0.009004807
59	0xbeefaa90	-0.46809816
60	0xbf317d46	-0.6933178
61	0x3ed279d6	0.41108578
62	0xbe849a29	-0.25898865
63	0x3ef5af73	0.4798542
64	0x3d737e6e	0.059446745
65	0x3e435c18	0.190781
66	0x3ed6d0f8	0.41956306
67	0xbeb7cb41	-0.35897258
68	0xbee55201	-0.44789127
69	0x3e66356d	0.22481318
70	0x3edd9a3d	0.43281737
71	0x3eedf004	0.4647218
72	0xbe1a9a6d	-0.15097971
73	0xbe44c64c	-0.19216269
74	0xbd00899a	-0.031381227
75	0x3f0a823c	0.5410497
76	0xbe19bc98	-0.15013349
77	0x3e1ec816	0.15506014
78	0xbf15696b	-0.5836398
79	0x3e628244	0.22120005
80	0x3f221b36	0.6332277
81	0xbe888c03	-0.2666932
82	0xbefa96e8	-0.48943257
83	0xbebfa88e	-0.37433285
84	0xbbc5a361	-0.006031439
85	0x3f008821	0.50207716
86	0x3f1853b7	0.5950274
87	0x3ec2c89d	0.3804368
88	0x3d7e6e15	0.0621167
89	0xbdb2ba70	-0.087269664
90	0xbea922a7	-0.3303425
91	0x3e0cbfd1	0.13745047
92	0xbf11f11e	-0.5700854
93	0xbf0ed544	-0.5579417
94	0x3d2ccfa2	0.0421902
95	0xbf292183	-0.6606676
96	0xbefd0560	-0.49418163
97	0x3ed5b648	0.41740632
98	0x3e5c70ac	0.21527356
99	0x3e838034	0.2568375
100	0x3f25ad4d	0.6471756
101	0x3ed87a57	0.42280838
102	0xbe020927	-0.12698804
103	0x3d111aca	0.03542594
104	0xbf2266ce	-0.6343812
105	0xbe3395a4	-0.17537552
106	0xbdcceb1a	-0.100057796
107	0x3dcb9d76	0.09942143
108	0x3ec29a3c	0.38008296
109	0xbe77557e	-0.24153706
110	0x3ebc3a00	0.36763
111	0xbe7b8b3b	-0.24564831
112	0x3efb8b98	0.4912994
113	0x3f0e7072	0.5564033
114	0xbf134ee7	-0.5754227
115	0xbf000aa6	-0.5001625
116	0xbc961180	-0.018318892
117	0x3f1c21a9	0.6098886
118	0x3f283b46	0.65715444
119	0xbd37eec8	-0.044905454
120	0xbe85300b	-0.26013216
121	0xbed59a1f	-0.41719148
122	0x3e0677c2	0.13131621
123	0xbc4fbfeb	-0.012680034
124	0xbe330931	-0.17483975
125	0xbe1aa1bd	-0.15100761
126	0xbf220f17	-0.63304275
127	0x3e872ee0	0.2640295
128	0xbe56e7b6	-0.20986828
129	0x3d93d132	0.07217635
130	0x3ed8270a	0.42217284
131	0x3ea61f74	0.32445872
132	0xbf0c23d8	-0.54742193
133	0xbf120458	-0.5703788
134	0x3dab7b9a	0.083731845
135	0x3f16d2a7	0.5891518
136	0x3f0fba50	0.56143665
137	0xbf0a7388	-0.54082537
138	0x3b876df8	0.0041329823
139	0x3ee233d5	0.4418017
140	0x3e3a9120	0.18219423
141	0x3dff70e8	0.12472707
142	0x3e0225f7	0.12709795
143	0xbeac2d1b	-0.33628163
144	0xbf302fa4	-0.68822694
145	0xbee37e94	-0.4443251
146	0x3f1ccd5c	0.61250854
147	0xbecae9f9	-0.39631632
148	0x3e0bd199	0.13654174
149	0xbceed5f0	-0.029154748
150	0xbe783046	-0.24237165
151	0x3e7ec3a7	0.24879323
152	0xbe46930d	-0.19392033
153	0x3ebfc433	0.37454376
154	0x3f1a3b5d	0.6024683
155	0xbe535276	-0.20636925
156	0xbe813efb	-0.25243363
157	0x3f0cb7b6	0.5496782
158	0xbf1985a0	-0.5996952
159	0x3ea9212f	0.3303313
160	0x3ebb9a3f	0.36641118
161	0xbf10edb9	-0.56612736
162	0x3ea78fa6	0.32726783
163	0xbd51fdb0	-0.051267326
164	0x3f209fc6	0.62743795
165	0xbf22d888	-0.6361165
166	0xbf144ac5	-0.5792659
167	0x3e52e2e0	0.20594358
168	0xbf06cdf6	-0.5265802
169	0xbdfeb871	-0.12437523
170	0xbde96a50	-0.113972306
171	0x3d70fed0	0.058836758
172	0x3e84b0d5	0.25916162
173	0xbe8cb1e1	-0.2747946
174	0x3f1a05b2	0.6016494
175	0x3e0aa11e	0.13538024
176	0x3da58866	0.080826566
177	0xbf0d7611	-0.5525828
178	0x3ef4f680	0.47844315
179	0x3f1814a9	0.59406525
180	0xbea6ad9d	-0.3255433
181	0xbeada25d	-0.33912936
182	0x3e24adaa	0.16081873
183	0x3d7a9711	0.061179224
184	0xbef62a26	-0.48079032
185	0x3ec3b109	0.38221005
186	0xbed0f5b4	-0.40812457
187	0x3ea9c9ac	0.33161676
188	0x3eeb9e83	0.46019372
189	0x3ebfe5a6	0.37479895
190	0xbe5f35da	-0.21797886
191	0xbec0c38d	-0.37649193
192	0xbb355506	-0.0027669086
193	0x3edc806b	0.43066725
194	0x3e10b90b	0.14133088
195	0xbe2ec633	-0.17067795
196	0xbf23a6df	-0.639265
197	0xbf22e6f0	-0.6363363
198	0x3da7c8a2	0.081925645
199	0x3bac74b9	0.005262938
200	0xbeefda7b	-0.46846375
201	0xbf2242f5	-0.6338342
202	0x3ed44c94	0.41464674
203	0x3dd547db	0.10414096
204	0xbeba294b	-0.3635963
205	0x3d3c90c2	0.04603649
206	0xbea83918	-0.3285606
207	0xbd3b4df6	-0.045728646
208	0xbf0c8487	-0.5488972
209	0x3ef354b7	0.4752557
210	0xbf269fd5	-0.65087634
211	0x3eb2cab0	0.34920263
212	0xbf17bbc0	-0.5927086
213	0x3f2a3180	0.6648178
214	0xbc1b90e6	-0.009494996
215	0x3f03848a	0.51374114
216	0x3f069fad	0.52587396
217	0xbee6885d	-0.45025912
218	0xbeb1550e	-0.34635204
219	0x3e46b1e8	0.19403803
220	0x3ed437c4	0.41448796
221	0x3f111421	0.5667134
222	0xbe3364a6	-0.17518863
223	0xbe923197	-0.2855346
224	0xbf169caa	-0.588328
225	0x3ed814fc	0.4220351
226	0x3e8ae2aa	0.27126056
227	0xbd64f6c6	-0.055899404
228	0xbd235a2b	-0.039880913
229	0x3e49c4d4	0.1970399
230	0xbf23b709	-0.63951164
231	0xbf2123be	-0.62945163
232	0xbe06c5a2	-0.13161328
233	0xbee25271	-0.44203523
234	0x3efb18c4	0.49042332
235	0xbde8772c	-0.11350855
236	0xbeeaddc0	-0.45872307
237	0x3e984f40	0.29747963
238	0xbf0a173f	-0.5394172
239	0x3f192178	0.59816694
240	0xbeb7ea9d	-0.35921183
241	0xbedfe7af	-0.43731448
242	0x3dfc1568	0.123087704
243	0xbe9787ad	-0.295957
244	0x3e8fbea7	0.28075144
245	0xbf16b442	-0.588688
246	0xbc5188be	-0.0127889495
247	0x3dff8b92	0.12477793
248	0x3d7e61a7	0.062104847
249	0x3ee38d66	0.44443816
250	0xbebbd968	-0.36689305
251	0xbea75a71	-0.3268619
252	0x3f2ce382	0.6753465
253	0xbf20b7c2	-0.6278039
254	0xbe60e083	-0.21960644
255	0x3ec97f6b	0.39355025

weight f4 [20, 20]
0	0x3f04ced4	0.51878095
1	0x3e6b4690	0.22976136
2	0xbf0a9075	-0.54126674
3	0x3f18a3cd	0.5962494
4	0xbe5ad614	-0.21370727
5	0xbe8ed90e	-0.27899975
6	0x3eb4cbed	0.35311833
7	0x3f01f867	0.50769657
8	0x3ef40165	0.47657314
9	0xbe8ddca1	-0.2770739
10	0x3cd45752	0.025920544
11	0x3e8a6a0f	0.2703404
12	0x3f138709	0.5762792
13	0x3f04518f	0.5168695
14	0xbe6a0db8	-0.22856796
15	0xbe86d747	-0.2633612
16	0xbea70bd0	-0.326262
17	0xbe318860	-0.17337179
18	0x3eb466c9	0.3523467
19	0xbe4df21a	-0.20111886
20	0xbd9a1656	-0.075237915
21	0xbe9788b2	-0.29596478
22	0x3ca8cf8d	0.02060678
23	0x3edc8c17	0.4307563
24	0x3ec0b66c	0.37639177
25	0x3f08a836	0.5338167
26	0xbef2fa44	-0.47456563
27	0xbf1dea37	-0.6168551
28	0xbd2a89cd	-0.041635323
29	0x3ead69a9	0.33869675
30	0xbf0957dd	-0.53649694
31	0xbe9a0534	-0.30082095
32	0xbf177268	-0.59158945
33	0xbef3412c	-0.4751066
34	0x3f085692	0.53257096
35	0x3e9a2d35	0.30112615
36	0x3f1cada7	0.6120247
37	0xbf184e3e	-0.5949439
38	0xbf103f71	-0.56346804
39	0xbf01887d	-0.5059889
40	0x3e5f4b1f	0.21806
41	0x3f17ae25	0.592501
42	0x3ee0fc51	0.43942502
43	0x3ebf94b3	0.37418136
44	0xbe0316a5	-0.12801607
45	0xbd8713bf	-0.06595563
46	0x3ef356f0	0.47527266
47	0x3e96fab7	0.29488155
48	0xbf08594c	-0.53261256
49	0xbeb28bed	-0.3487238
50	0xbf06acab	-0.5260722
51	0xbe70ab1a	-0.2350277
52	0x3e67eee4	0.22649723
53	0x3f1c834d	0.6113785
54	0xbf0273b2	-0.5095779
55	0xbf0de6cd	-0.554303
56	0x3d06763b	0.032827597
57	0xbeaf4bc1	-0.34237483
58	0xbf0f3e90	-0.5595484
59	0xbe5e544d	-0.21711846
60	0xbd511c2c	-0.051052257
61	0x3efda992	0.49543434
62	0xbe5290d1	-0.20563056
63	0x3db77450	0.08957732
64	0x3f170f44	0.5900767
65	0xbe20e0af	-0.1571071
66	0x3d91175d	0.07084534
67	0x3ee3af40	0.44469643
68	0x3d7c7ee0	0.061644435
69	0xbedfdffd	-0.43725577
70	0x3b86afc5	0.004110309
71	0x3e99c282	0.3003121
72	0xbda4f1c4	-0.08053926
73	0x3eba4445	0.3638021
74	0x3e10cac0	0.14139843
75	0x3e71c028	0.23608458
76	0xbc3352fa	-0.010945076
77	0x3f0141ff	0.5049133
78	0xbf0a2ca7	-0.53974384
79	0xbec69eb7	-0.38792965
80	0x3d04913e	0.032365076
81	0xbe6dc871	-0.23220994
82	0xbf10a4cd	-0.56501466
83	0x3f0ccd93	0.5500118
84	0xbef0ea2e	-0.47053665
85	0x3f1d6336	0.6147951
86	0xbea10e2a	-0.3145612
87	0xbf03cd2f	-0.5148496
88	0x3e0b516e	0.13605282
89	0xbe9e642e	-0.30935806
90	0x3c7002d8	0.0146491155
91	0x3e8db8d1	0.27680066
92	0x3dadb8c9	0.084825106
93	0xbd0fa566	-0.035069846
94	0x3dc11b9d	0.09429095
95	0xbf1f1d68	-0.62154245
96	0x3ed57f91	0.41698888
97	0x3e115ec6	0.1419631
98	0x3f1df417	0.61700577
99	0xbef8b98e	-0.48579067
100	0xbe09c5ab	-0.1345431
101	0x3c33a881	0.010965467
102	0xbe320182	-0.17383388
103	0x3f2bd555	0.67122394
104	0x3e45384a	0.19259754
105	0xbf0f9e3e	-0.56100833
106	0x3e7367e0	0.23770094
107	0xbc6fcbfe	-0.014636038
108	0xbeb49730	-0.35271597
109	0xbd98e870	-0.07466209
110	0xbf050330	-0.5195799
111	0xbec7db3e	-0.39034456
112	0x3e339ed0	0.17541051
113	0x3ee6c765	0.45074
114	0x3f192119	0.5981613
115	0xbe84e84a	-0.25958472
116	0xbeb74fa9	-0.35802963
117	0x3f0f40fa	0.5595852
118	0xbef149da	-0.47126657
119	0x3eed1a9c	0.46309364
120	0xbe8f368b	-0.279713
121	0x3e9dac69	0.307956
122	0x3eeb644b	0.45974955
123	0x3f0b6247	0.54446834
124	0x3d867339	0.06564946
125	0xbd747ef7	-0.059691396
126	0x3e1f15e5	0.15535696
127	0xbece3fdd	-0.402831
128	0x3e94cbab	0.29061636
129	0x3ecc6d57	0.3992717
130	0x3ea9af6a	0.33141643
131	0xbe9c6cb4	-0.30551684
132	0x3f022097	0.5083098
133	0x3e62b3b0	0.22138858
134	0xbd5f8052	-0.054565735
135	0x3e2237d1	0.15841605
136	0xbeb9014f	-0.3613381
137	0xbe8cf01f	-0.27526948
138	0xbd9a0d5e	-0.07522081
139	0x3ee4dd6c	0.4470018
140	0xbeb9a201	-0.36256412
141	0xbe288ac5	-0.16459186
142	0xbf14d0af	-0.58130926
143	0x3e1c4df5	0.15264113
144	0x3e1a5201	0.15070345
145	0x3ea54d92	0.32285744
146	0xbec4f97c	-0.3847159
147	0xbf1750f8	-0.59107924
148	0xbd9509bd	-0.07277248
149	0xbe63298c	-0.22183818
150	0x3d8df38f	0.06931221
151	0x3df504cc	0.119638056
152	0x3f1eaa77	0.6197886
153	0x3f024efc	0.5090177
154	0xbee75003	-0.45178232
155	0x3f16ffe3	0.589842
156	0x3e5e6c77	0.21721064
157	0x3e8e619f	0.27808854
158	0xbf02ddca	-0.51119673
159	0x3e95c729	0.2925351
160	0xbe9ccf59	-0.30626944
161	0x3ee77a50	0.45210505
162	0xbf06362a	-0.524264
163	0x3ef83f25	0.48485675
164	0xbedaa23f	-0.4270191
165	0xbee49147	-0.44642088
166	0x3e67b903	0.2262917
167	0xbef65536	-0.48111886
168	0x3f107295	0.5642484
169	0xbe22f0ce	-0.15912172
170	0xbe6545ed	-0.22389956
171	0xbf0bf51e	-0.54670894
172	0x3ea37cb4	0.31931078
173	0xbf0e1353	-0.55498236
174	0x3f02f010	0.51147556
175	0x3e6da733	0.23208313
176	0x3ecf393d	0.40473357
177	0x3de8828a	0.11353023
178	0xbe877278	-0.2645452
179	0xbeb50bef	-0.35360667
180	0x3f2bca57	0.6710562
181	0xbee1e85f	-0.44122598
182	0x3da47390	0.08029854
183	0x3e4b2ba7	0.19840871
184	0x3f1b94f9	0.6077419
185	0xbe933555	-0.28751627
186	0xbf1da072	-0.61572945
187	0x3e625359	0.22102107
188	0xbc9d0174	-0.019165732
189	0x3db1ca5a	0.086811736
190	0xbe0577ea	-0.13034025
191	0x3dc06d1b	0.0939581
192	0x3e34b39d	0.17646642
193	0x3f0182b3	0.50590056
194	0xbcb19087	-0.021675361
195	0xbeea4451	-0.45755246
196	0xbe20fa3e	-0.1572046
197	0xbea75ebc	-0.32689464
198	0xbe5f3fe0	-0.2180171
199	0x3dd093ff	0.10184478
200	0xbf088d5d	-0.53340703
201	0xbea9d507	-0.3317034
202	0x3eca274b	0.39483103
203	0xbee83a84	-0.45357144
204	0xbea78501	-0.3271866
205	0x3d5d24a7	0.053990033
206	0xbe31e73c	-0.17373365
207	0xbe02058a	-0.12697425
208	0xbe97afa7	-0.296262
209	0xbefe0bf7	-0.49618503
210	0xbe3e8c4c	-0.18608207
211	0xbe5a464a	-0.21315876
212	0x3eaa0148	0.33204103
213	0xbe95b8d6	-0.2924258
214	0xbcb4e5ff	-0.022082327
215	0x3f0e58cc	0.55604243
216	0xbe71380a	-0.23556533
217	0x3c4173f8	0.011807434
218	0xbeb45d62	-0.35227495
219	0xbf05f1f5	-0.5232232
220	0x3f204c34	0.62616277
221	0x3f1e868f	0.6192407
222	0x3ead3f53	0.33837375
223	0x3eaff1fe	0.34364313
224	0xbefb6710	-0.49102068
225	0xbe034dc3	-0.12822632
226	0xbf065349	-0.52470833
227	0x3e701fb3	0.23449592
228	0x3c9d74f3	0.019220805
229	0x3eb06b53	0.34456882
230	0xbe5922e4	-0.21204716
231	0x3e73dfd4	0.23815852
232	0x3e63e1ce	0.22254106
233	0x3c318482	0.010834815
234	0x3e1c6bde	0.15275523
235	0x3e8d5d06	0.27610034
236	0x3dcae2b2	0.0990652
237	0x3eef46b5	0.46733633
238	0xbf07d0f1	-0.53053194
239	0xbe96d498	-0.2945907
240	0x3eaaf8f7	0.3339307
241	0xbf0851d0	-0.53249836
242	0xbf0adeae	-0.5424603
243	0xbd16b403	-0.036792766
244	0xbea5826f	-0.32326075
245	0xbe6b6604	-0.22988135
246	0xbe78f0a3	-0.24310546
247	0xbeaaecd0	-0.333838
248	0xbeed1783	-0.46307
249	0xbe6a3cc4	-0.22874743
250	0x3c92cf20	0.01792103
251	0xbe9c42ea	-0.305198
252	0x3cf3f699	0.029780673
253	0xbf05d428	-0.5227685
254	0x3f131bcf	0.5746431
255	0xbeca7676	-0.39543504

weight f4 [20, 56]
0	0xbc8d1b1f	-0.017224846
1	0x3e62f8ed	0.2216527
2	0x3eb9188b	0.36151537
3	0x3ec8088d	0.39069024
4	0xbe4e764f	-0.20162319
5	0xbd38295f	-0.04496133
6	0x3e1e5a49	0.15464129
7	0x3ec6dd7a	0.38840848
8	0xbde6af7c	-0.1126394
9	0xbca180d0	-0.019714743
10	0x3e3909e4	0.18070179
11	0xbef852fb	-0.4850081
12	0x3eb52b4a	0.3538459
13	0x3edfa33d	0.43679228
14	0x3e890e38	0.2676866
15	0x3ee34d6d	0.4439501
16	0xbe12fa81	-0.14353372
17	0xbe3d6d0a	-0.18498626
18	0x3d8454ea	0.064615086
19	0x3e8d1c15	0.27560487
20	0xbcbc14fb	-0.022959223
21	0x3c03ac30	0.008036658
22	0x3d15d52d	0.036580253
23	0x3eb0c8b2	0.34528118
24	0xbedc6f5a	-0.43053705
25	0xbe00c14b	-0.12573735
26	0x3e886262	0.2663756
27	0xbd43ca2f	-0.04780024
28	0xbe14497f	-0.14481162
29	0x3e90e292	0.2829786
30	0x3ef76efe	0.48326868
31	0xbec448cd	-0.38336793
32	0xbea877f8	-0.3290403
33	0xbe038ed7	-0.12847458
34	0x3dbb4b91	0.091452725
35	0x3ec53991	0.38520482
36	0xbebf02c8	-0.3730681
37	0xbe7d3e89	-0.24730887
38	0x3edfdf23	0.43724927
39	0x3d2c1d28	0.042019993
40	0x3dcd2ffd	0.10018919
41	0xbd099b14	-0.03359516
42	0x3e8f7511	0.28019002
43	0xbf001a2a	-0.50039923
44	0xbe0342cd	-0.12818451
45	0xbe41ed29	-0.18938126
46	0x3e3776cf	0.17916416
47	0xbee73ca2	-0.45163447
48	0x3d07fa1c	0.033197507
49	0x3d8a948c	0.06766614
50	0xbd60af9f	-0.054854985
51	0x3e7895cf	0.24275897
52	0x3f001996	0.5003904
53	0x3c2b806e	0.010467632
54	0xbd527538	-0.05138132
55	0xbcbc9973	-0.023022389
56	0x3ec5c46b	0.38626418
57	0x3d556ac9	0.05210379
58	0xbe279fda	-0.16369572
59	0xbee451d3	-0.44593677
60	0xbeed7caa	-0.46384174
61	0xbdd2434f	-0.10266744
62	0x3e46b1bb	0.19403736
63	0xbd9d63d8	-0.07685059
64	0xbed1e62c	-0.4099592
65	0xbe0b88c3	-0.13626389
66	0xbd7521c9	-0.059846673
67	0x3e9870bd	0.29773512
68	0xbe6418b8	-0.22275054
69	0xbedbd853	-0.4293848
70	0x3e8dd310	0.2770009
71	0xbd6534b6	-0.055958472
72	0xbe6429b4	-0.22281533
73	0x3ece46d7	0.40288422
74	0x3e4d38a5	0.2004114
75	0x3ed40ceb	0.41416106
76	0x3c32d6a6	0.010915434
77	0x3e9a6bf7	0.30160496
78	0xbe344eef	-0.17608236
79	0x3dd28a42	0.10280277
80	0x3e80a4ee	0.2512583
81	0xbe96ad6b	-0.29429182
82	0x3ea9c479	0.3315771
83	0x3e6cce38	0.23125541
84	0x3e107584	0.14107329
85	0xbe9f744a	-0.3114341
86	0x3e9f01f9	0.31056193
87	0xbed649e7	-0.41853258
88	0x3ec67784	0.38763058
89	0xbe110e12	-0.14165524
90	0xbec8a0b9	-0.39185122
91	0x3ebf1a02	0.3732453
92	0x3e4fa3a6	0.2027727
93	0x3ddc5872	0.10759057
94	0xbe9837cc	-0.2973007
95	0x3e2c4640	0.16823673
96	0x3e570d0d	0.21001072
97	0x3ed4775a	0.41497308
98	0xbde09368	-0.109656155
99	0x3e6dd500	0.23225784
100	0xbdc74d1c	-0.09731504
101	0xbe1a13fe	-0.15046689
102	0x3d992408	0.074775755
103	0x3ead5166	0.33851165
104	0xbe1c18d5	-0.15243848
105	0x3dcd15a6	0.10013895
106	0xbef33e14	-0.475083
107	0xbecb8c7c	-0.3975562
108	0xbeeb0787	-0.4590418
109	0xbec82911	-0.3909383
110	0x3e912882	0.28351218
111	0x3c3e4b24	0.011614595
112	0x3e0298b6	0.12753567
113	0xbea2f7d2	-0.31829697
114	0xbe83d504	-0.25748456
115	0xbeea19d0	-0.45722818
116	0x3ee37a71	0.44429353
117	0x3ddf11bf	0.10892057
118	0x3d93537f	0.0719366
119	0xbe33b996	-0.17551264
120	0xbec78114	-0.38965666
121	0xbe5ebe48	-0.21752274
122	0x3ec3b935	0.3822724
123	0xbea73c97	-0.32663414
124	0xbe7b0aa1	-0.24515773
125	0x3e850bfa	0.259857
126	0xbde54627	-0.11195021
127	0xbd901440	-0.070351124
128	0xbeb98b05	-0.36238876
129	0x3decbd80	0.11559582
130	0x3e8013b3	0.2501503
131	0xbeb6a336	-0.35671395
132	0x3e18bc9d	0.149157
133	0xbe377e72	-0.17919329
134	0x3c76bf6c	0.015060287
135	0x3ebd2c08	0.36947656
136	0xbd8160aa	-0.06317265
137	0x3e57d669	0.21077885
138	0x3e9154a3	0.28384885
139	0x3e97e4bd	0.296667
140	0x3d982860	0.07429576
141	0xbc8bab72	-0.017049525
142	0xbeb786a9	-0.35844925
143	0xbd92d22c	-0.07168993
144	0xbe9db44c	-0.30801618
145	0x3e85c235	0.2612473
146	0x3ee8a26a	0.45436412
147	0x3e965361	0.29360488
148	0xbdae56c7	-0.08512645
149	0xbeb719c3	-0.35761842
150	0xbd97212c	-0.07379374
151	0x3e0f0883	0.1396809
152	0xbec51b58	-0.38497424
153	0xbe0c6d3a	-0.13713542
154	0x3e733bc8	0.23753273
155	0xbe5ca0b2	-0.21545675
156	0x3ea0e6a6	0.3142597
157	0xbe87682f	-0.26446673
158	0xbcef3558	-0.029200241
159	0xbcf73bd0	-0.030179888
160	0x3daed72b	0.08537134
161	0x3ebe88a6	0.3721363
162	0xbd25878d	-0.040412474
163	0x3e9e1538	0.30875564
164	0xbecb58ba	-0.3971613
165	0x3eaac7e8	0.3335564
166	0xbe79cdfa	-0.2439498
167	0xbe8234d6	-0.25430936
168	0x3eb8bdf8	0.36082435
169	0x3ea634b1	0.32462075
170	0xbe8a2018	-0.2697761
171	0x3de35960	0.11101031
172	0x3e241d06	0.16026697
173	0x3caa4003	0.020782476
174	0x3ec8340d	0.39102212
175	0x3e8694d1	0.26285413
176	0x3e322038	0.17395103
177	0xbec8c264	-0.39210808
178	0xbad47de1	-0.0016211831
179	0xbe6d958e	-0.23201582
180	0x3ed11736	0.4083802
181	0xbdf96072	-0.121765986
182	0x3d9c422a	0.07629807
183	0x3d53fd48	0.05175522
184	0x3e84acd3	0.25913104
185	0x3e0651a5	0.13117082
186	0x3e7caddb	0.24675696
187	0xbec13ae9	-0.37740257
188	0x3ecdef8a	0.40221816
189	0x3eebabba	0.46029454
190	0x3e1bbf1c	0.15209621
191	0xbd5b39e8	-0.05352202
192	0x3e26de80	0.16295815
193	0x3e792400	0.24330139
194	0x3ef85ad5	0.485068
195	0x3e187fbf	0.14892481
196	0x3ef7361c	0.4828347
197	0xbdb29944	-0.08720639
198	0xbe6595ce	-0.22420427
199	0x3ee428dc	0.44562423
200	0x3ee8f325	0.45498005
201	0x3ea9708d	0.33093682
202	0xbd836948	-0.06416565
203	0xbedbeb47	-0.4295294
204	0x3ea9ef21	0.33190253
205	0x3ee411db	0.44544873
206	0x3e011f46	0.12609586
207	0x3ebe9db6	0.372297
208	0xbe77f188	-0.2421323
209	0x3e9b61f0	0.30348158
210	0x3e8f950b	0.28043398
211	0x3ec90321	0.392602
212	0xbedac889	-0.4273112
213	0x3e53aec7	0.20672141
214	0x3e12b2a3	0.14325957
215	0xbec93e34	-0.3930527
216	0xba862df9	-0.001023709
217	0xbe13947d	-0.14412113
218	0x3bbf8022	0.005844132
219	0xbeb6dd9a	-0.35715944
220	0xbd14af2c	-0.03629987
221	0x3d335656	0.04378351
222	0x3ea788ab	0.32721457
223	0xbe489adf	-0.19590329
224	0x3d9020f4	0.07037535
225	0x3cdc17ec	0.026866876
226	0x3ea4ac46	0.32162684
227	0x3d3f4f39	0.046706412
228	0x3e560b16	0.20902666
229	0xbe84f94f	-0.25971457
230	0xbc49a5a4	-0.012307558
231	0x3e8dc7f7	0.27691624
232	0x3c339257	0.010960183
233	0xbd5e3c82	-0.054256923
234	0xbda0673d	-0.07832191
235	0x3bddf3b8	0.0067734383
236	0x3e18b8af	0.14914201
237	0xbe0fbbf2	-0.14036539
238	0x3d838529	0.06421883
239	0xbe4f672c	-0.202542
240	0x3f062bc1	0.52410513
241	0x3dfe64e0	0.12421584
242	0xbe4bb25b	-0.19892256
243	0xbdc5a141	-0.09649897
244	0xbef4ea7e	-0.47835153
245	0xbe377dc5	-0.17919071
246	0x3e9d98c3	0.3078061
247	0x3deddeff	0.11614799
248	0x3e033784	0.12814146
249	0xbdead4fb	-0.11466404
250	0xbeba1d21	-0.3635035
251	0x3ecf1bab	0.40450796
252	0x3e0c55b1	0.13704564
253	0xbe97cf82	-0.29650503
254	0xbddaa1fa	-0.10675426
255	0xbe2c7409	-0.16841139
