saved/model.pt (torch, 10186 bytes, 3 tensors)

weight f4 [20, 16]
-0.6162118 0.13649747 -0.058286406 0.2383788 -0.5056061 0.34632808 -0.6372113 0.17518568
0.2526284 0.084095605 0.5111584 0.25544852 0.05295505 0.018252868 0.5799813 0.20246743
-0.605923 0.51597434 -0.61033344 -0.31031778 0.5917612 0.1453646 -0.46843627 -0.12925656
0.1299903 0.446768 -0.109770425 0.2805948 0.23513186 0.5889757 0.31926876 -0.21571395
-0.5607379 0.44545484 0.19425021 -0.12836716 -0.035962444 -0.56992906 0.2146324 0.5042104
0.6793675 -0.3756396 0.256206 0.66368854 0.5863776 -0.66765714 -0.43786797 -0.6464882
0.4752439 -0.5935348 -0.6103342 0.12262169 0.0064210263 0.013317986 0.054432634 0.64527756
-0.024464041 0.43018132 0.5481883 0.026018215 -0.09549584 0.22134677 -0.26410422 0.37481266
0.61906284 0.25877944 -0.26116276 -0.16057386 0.65849274 0.15345451 -0.1907177 -0.45593533
-0.20172375 0.31033215 -0.4703872 0.46962854 0.11018336 0.17583813 0.034764055 -0.11061629
-0.5274928 0.49420428 0.5754524 -0.17208333 -0.2000734 -0.17740165 -0.14535436 0.3554561
0.1756042 -0.0152093535 -0.6822484 -0.15670185 0.3716423 -0.44721672 0.3249625 0.001012511
0.0355519 -0.22044136 -0.2209973 -0.5914887 0.5912643 0.33053276 -0.5228166 0.6189251
0.17562415 -0.658387 -0.3951645 0.66751236 -0.01760046 0.67573464 0.32202303 -0.25141415
0.065771006 -0.54130375 -0.540237 0.26446936 0.3115179 -0.3829589 0.36780196 0.27763766
-0.014605913 0.6870181 -0.56500536 -0.26417437 -0.12080018 -0.45071894 0.05456278 -0.002541424
-0.072240986 0.19556108 0.124461435 0.51421225 0.48527032 0.13846979 -0.11803365 -0.010918908
0.3310043 -0.518744 0.22382621 -0.6465101 -0.18064252 -0.17965333 0.33381575 -0.013869242
0.6350635 0.65192527 -0.080312304 -0.6446954 -0.5985567 -0.4812502 -0.5028118 0.39037445
-0.5792416 0.047706526 -0.3581686 0.33931187 -0.20163423 0.35739103 0.20206317 -0.4867849
0.29097712 -0.29758415 -0.25539702 0.46608737 0.5075563 -0.33170414 0.65258247 -0.35943863
-0.3090825 -0.12472226 0.17782062 -0.071485914 0.25676 0.27832717 0.22062953 0.08636787
0.2566262 -0.17052248 -0.6566674 0.021479469 0.39534342 0.03199329 -0.30374247 -0.60816234
0.012083142 -0.20442392 -0.5554166 -0.66393983 -0.2898654 -0.17155151 0.0053877523 0.6032928
0.42274627 -0.6236554 -0.21404107 0.5566898 0.46632278 -0.25406605 0.48064896 -0.0007977338
-0.38765705 0.100307375 -0.13208894 0.5405172 -0.39046493 0.6223043 -0.5863692 -0.19871649
0.24235077 -0.6377526 0.20865665 -0.09212413 0.6429619 0.5559727 -0.19820721 -0.46304023
0.24684002 -0.5133739 -0.047399778 -0.06679847 0.26722375 0.7021749 -0.08343673 -0.29517096
0.49066058 0.24795857 -0.6078974 -0.04499998 -0.25137824 -0.33452827 -0.5339066 0.24131663
-0.26804298 -0.5833454 0.043386243 0.18795092 0.64264774 0.26934943 0.039816964 0.1951193
-0.10678671 0.27924567 -0.3377899 0.28017357 -0.30185583 -0.023459287 0.1749504 0.08606307
-0.06677708 -0.3486276 -0.13071446 -0.2601429 -0.2050379 0.44867885 -0.021476066 -0.2201369
00000000: 0ec0 1dbf fec5 0b3e babd 6ebd 9219 743e
00000010: 676f 01bf ea51 b13e 4820 23bf e063 333e
00000020: 8258 813e 513a ac3d 47db 023f 26ca 823e
00000030: 65e7 583d 0a87 953c a879 143f 9f53 4f3e
00000040: c51d 1bbf e516 043f d03e 1cbf f9e1 9ebe
00000050: a97d 173f 75da 143e e1d6 efbe d55b 04be
00000060: 2d1c 053e c6be e43e 51cf e0bd 1faa 8f3e
00000070: 68c6 703e 1dc7 163f 3277 a33e 1ee4 5cbe
00000080: 858c 0fbf a812 e43e 87e9 463e ae72 03be
00000090: 5b4d 13bd dfe6 11bf 99c8 5b3e ef13 013f
000000a0: 07eb 2d3f d553 c0be 6f2d 833e 7ee7 293f
000000b0: d81c 163f 94eb 2abf 3b30 e0be 4080 25bf
000000c0: 2b53 f33e e6f1 17bf dd3e 1cbf 1521 fb3d
000000d0: 7967 d23b af33 5a3c c1f4 5e3d e930 253f
000000e0: d068 c8bc ba40 dc3e 1256 0c3f 2724 d53c
000000f0: 5393 c3bd baa8 623e ab38 87be 72e7 bf3e
00000100: e77a 1e3f bd7e 843e 20b7 85be 796d 24be
00000110: fb92 283f 2e23 1d3e 804b 43be 5b70 e9be
00000120: ac90 4ebe dbe3 9e3e 97d6 f0be 2773 f03e
00000130: d0a7 e13d e90e 343e c164 0e3d cb8a e2bd
00000140: c509 07bf 5808 fd3e d950 133f 9d36 30be
00000150: 0be0 4cbe c7a8 35be c6d7 14be 58fe b53e
00000160: 96d1 333e a730 79bc d5a7 2ebf 7376 20be
00000170: e647 be3e 97f9 e4be 7c61 a63e 3bb6 843a
00000180: de9e 113d 61bb 61be 1e4d 62be ce6b 17bf
00000190: 195d 173f 973b a93e 4fd7 05bf e071 1e3f
000001a0: d1d6 333e 0d8c 28bf 0053 cabe 17e2 2a3f
000001b0: d72e 90bc f2fc 2c3f 34e0 a43e 5bb9 80be
000001c0: f3b2 863d e292 0abf f94c 0abf 8768 873e
000001d0: 467f 9f3e 3013 c4be 8a50 bc3e 8626 8e3e
000001e0: a44d 6fbc 6be0 2f3f 31a4 10bf dd41 87be
000001f0: 1666 f7bd a2c4 e6be 397d 5f3d 058e 26bb
00000200: 15f3 93bd 2a41 483e a3e5 fe3d 6aa3 033f
00000210: 5a75 f83e 06cb 0d3e a0bb f1bd 38e5 32bc
00000220: 6579 a93e 68cc 04bf b332 653e b081 25bf
00000230: 5afa 38be 0bf7 37be e6e9 aa3e d13b 63bc
00000240: 8693 223f 93e4 263f c77a a4bd c20a 25bf
00000250: 033b 19bf 6d66 f6be 46b8 00bf 29df c73e
00000260: 2d49 14bf eb67 433d e061 b7be 49ba ad3e
00000270: 3479 4ebe f5fb b63e a6e9 4e3e df3b f9be
00000280: f4fa 943e f35c 98be 66c3 82be 01a3 ee3e
00000290: 36ef 013f 20d5 a9be a50f 273f 5708 b8be
000002a0: 1040 9ebe 626e ffbd 9c16 363e 3567 92bd
000002b0: 0c76 833e e680 8e3e b5ec 613e a3e1 b03d
000002c0: 8264 833e 729d 2ebe 5b1b 28bf b6f5 af3c
000002d0: 746a ca3e 650b 033d 2284 9bbe 87b0 1bbf
000002e0: 5ff8 453c 8154 51be c82f 0ebf f6f7 29bf
000002f0: 3d69 94be 33ab 2fbe be8b b03b 6671 1a3f
00000300: 3372 d83e e1a7 1fbf 952d 5bbe 3983 0e3f
00000310: dcc1 ee3e f214 82be 9f17 f63e 021f 51ba
00000320: fc7a c6be f46d cd3d 5342 07be 565f 0a3f
00000330: 05eb c7be 564f 1f3f 4b1c 16bf 567c 4bbe
00000340: cd2a 783e c143 23bf 17aa 553e 93ab bcbd
00000350: 2799 243f 3a54 0e3f d5f6 4abe 9c13 edbe
00000360: a1c3 7c3e 796c 03bf 4526 42bd a3cd 88bd
00000370: 8dd1 883e bcc1 333f e0e0 aabd a620 97be
00000380: dd37 fb3e dae8 7d3e 2a9f 1bbf e651 38bd
00000390: a6b4 80be 4a47 abbe 1aae 08bf b51b 773e
000003a0: ee3c 89be 2056 15bf c6b5 313d 3576 403e
000003b0: 9084 243f 2be8 893e 1d17 233d 5bcd 473e
000003c0: feb2 dabd 4af9 8e3e ccf2 acbe e972 8f3e
000003d0: d98c 9abe b12d c0bc 3326 333e d641 b03d
000003e0: 6cc2 88bd 517f b2be 03da 05be 7331 85be
000003f0: 75f5 51be 3cb9 e53e 93ee afbc 916b 61be

weight f4 [20, 20]
0.24456063 0.5604304 0.22727823 -0.2461404 0.454689 -0.45743898 -0.19859241 0.5014744
-0.03633532 0.36788234 0.49724695 0.11987131 -0.5885516 0.40416187 -0.2215688 0.32045498
-0.24444252 0.25609186 -0.529586 0.1396908 0.27052665 -0.4642155 0.4271801 -0.034028105
-0.56600815 0.0017120201 -0.5112348 0.42281365 -0.38730818 -0.112598576 0.093523234 -0.027253443
0.6211402 0.06937567 0.29803178 -0.25815022 -0.23015948 0.3107192 -0.61133945 0.3254872
0.14568612 0.3804263 -0.55007535 0.33514845 -0.07166136 0.47097722 0.28434756 0.21140464
0.17665271 0.28635737 -0.32114694 0.41638938 0.43229753 -0.16167116 -0.19097026 0.056697614
-0.16188368 -0.13497892 0.2720498 -0.28919762 0.37411815 0.44165722 -0.5097348 0.3946121
0.4458696 0.09876493 0.5851166 -0.616284 0.5849277 0.025484763 -0.49287447 -0.3591253
-0.3155903 0.10478495 0.067962736 -0.12051763 -0.6228311 0.607081 -0.6612277 -0.25180233
0.5581683 -0.5051966 -0.30171835 -0.5368071 0.008191422 -0.39381635 0.37922993 0.03248383
-0.5495518 -0.08336762 -0.5092543 -0.063966565 0.29455113 0.34644455 -0.626513 0.3028025
-0.31030577 -0.2754309 0.3427855 -0.29983398 -0.2936363 -0.35936588 -0.18296297 -0.3383857
0.055495307 -0.06154864 -0.18212914 0.39316258 0.34733358 -0.13538212 0.3124064 -0.601243
0.085181735 -0.13630006 -0.28680876 0.3027614 0.5584205 -0.39371884 0.13858822 -0.5514318
0.048463974 -0.38264188 -0.100462526 0.22604503 0.18028022 0.66083604 0.23308623 -0.14666396
-0.45377478 -0.5377563 0.48207366 0.56114984 -0.4542933 0.327577 0.28440452 0.62378967
0.5162008 -0.1516559 0.45657527 -0.13417944 0.32719135 -0.48151508 0.32555428 -0.4841456
-0.4007296 0.12761976 -0.43669233 -0.34314513 0.4632993 0.40705958 0.0031729594 0.3079544
0.5432293 -0.07501528 -0.3895081 0.38737985 -0.22580202 0.29360184 -0.004699762 0.10797901
0.42591947 0.13065106 0.1758297 0.14351866 -0.12299643 -0.65074915 -0.26188523 0.3414436
0.0029032133 -0.46637225 0.55019313 -0.23063606 -0.32237184 -0.5826513 0.5467002 -0.32308215
0.45036697 -0.18023656 0.552772 -0.083139114 0.3546612 0.65151364 0.1428266 -0.44858262
-0.50493723 -0.15250683 -0.40013865 -0.03613448 -0.2422167 -0.22960643 -0.24828462 0.2504404
0.4352316 0.48996222 0.078667834 0.08664467 0.27229822 0.58327246 0.010482559 0.4723272
0.20305482 0.25820965 -0.62687784 0.31427756 0.27783245 0.45611495 -0.30131555 0.23223545
0.36953223 -0.23779815 0.07866396 -0.07663407 0.09907268 0.1349738 -0.3211632 0.5018454
-0.57916105 0.14965306 0.63983417 0.461985 -0.28146622 0.5368079 -0.26368555 -0.26840672
-0.106613606 -0.30314842 0.4130594 -0.45278692 0.51087976 0.16583294 -0.5832827 0.5258855
-0.17189643 0.3591691 0.47200903 -0.009355594 0.55260694 -0.2727484 0.3685899 0.5289114
-0.17267585 0.08080311 0.26833266 0.19668183 0.41414723 0.049940243 0.23784062 -0.26367483
0.21028791 -0.036306754 -0.35431758 0.12186504 0.19554703 0.09992334 0.2226279 -0.18208529
00000000: 1a6e 7a3e 5e78 0f3f a0bb 683e 3b0c 7cbe
00000010: ffcc e83e 7135 eabe cf5b 4bbe a060 003f
00000020: 58d4 14bd 135b bc3e 2797 fe3e 177f f53d
00000030: 51ab 16bf 4eee ce3e eee2 62be ad12 a43e
00000040: 244f 7abe 791e 833e f392 07bf 1b0b 0f3e
00000050: 7882 8a3e a7ad edbe 5ab7 da3e 0e61 0bbd
00000060: e9e5 10bf dd65 e03a 49e0 02bf 087b d83e
00000070: 424d c6be 159a e6bd 1c89 bf3d 9d42 dfbc
00000080: 0b03 1f3f d514 8e3d 9f97 983e 442c 84be
00000090: edae 6bbe 9616 9f3e be80 1cbf 42a6 a63e
000000a0: be2e 153e 3cc7 c23e bdd1 0cbf 9498 ab3e
000000b0: 31c3 92bd ed23 f13e 0196 913e 757a 583e
000000c0: 73e4 343e 6f9d 923e 5f6d a4be fd30 d53e
000000d0: 1a56 dd3e 208d 25be b58d 43be c23b 683d
000000e0: d6c4 25be ea37 0abe 1d4a 8b3e b611 94be
000000f0: 6a8c bf3e e520 e23e fb7d 02bf 990a ca3e
00000100: 0549 e43e 4545 ca3d 34ca 153f cac4 1dbf
00000110: d2bd 153f 6cc5 d03c 0b5a fcbe 45df b7be
00000120: 0d95 a1be 7e99 d63d 0c30 8b3d f2d1 f6bd
00000130: dc71 1fbf a969 1b3f 3846 29bf 3cec 80be
00000140: 1ee4 0e3f 9054 01bf d47a 9abe 316c 09bf
00000150: 5035 063c 4ca2 c9be 6d2a c23e c40d 053d
00000160: 6daf 0cbf a5bc aabd 7d5e 02bf e700 83bd
00000170: 68cf 963e 2e61 b13e 2863 20bf ee08 9b3e
00000180: 66e0 9ebe 4705 8dbe 9581 af3e d783 99be
00000190: 7f57 96be cefe b7be a55a 3bbe e440 adbe
000001a0: 0c4f 633d 6d1a 7cbd 1080 3abe 9b4c c93e
000001b0: b5d5 b13e 9ca1 0abe bbf3 9f3e 10eb 19bf
000001c0: c373 ae3d 3e92 0bbe 99d8 92be 8b03 9b3e
000001d0: a5f4 0e3f 8495 c9be 12ea 0d3e a22a 0dbf
000001e0: 2982 463d a3e9 c3be 4cbf cdbd 5978 673e
000001f0: 619b 383e 8d2c 293f 28ae 6e3e 142f 16be
00000200: 2b55 e8be 66aa 09bf 5cd2 f63e 84a7 0f3f
00000210: 2299 e8be 2cb8 a73e 789d 913e aeb0 1f3f
00000220: bc25 043f af4b 1bbe 3cc4 e93e 5666 09be
00000230: a085 a73e 2589 f6be 0daf a63e efe1 f7be
00000240: 6e2c cdbe c1ae 023e 2396 dfbe b8b0 afbe
00000250: 9135 ed3e 1d6a d03e 6df1 4f3b 33ac 9d3e
00000260: 1311 0b3f 9ca1 99bd 9b6d c7be a756 c63e
00000270: a538 67be fb52 963e 7600 9abb 1924 dd3d
00000280: 1e12 da3e 64c9 053e b30c 343e 8ef6 123e
00000290: 8de5 fbbd 7f97 26bf d215 86be b2d1 ae3e
000002a0: d643 3e3b 58c8 eebe 75d9 0c3f dc2b 6cbe
000002b0: ec0d a5be a328 15bf 8bf4 0b3f 066b a5be
000002c0: 8096 e63e ef8f 38be 7782 0d3f d744 aabd
000002d0: 2796 b53e 99c9 263f 2341 123e 9fac e5be
000002e0: 9143 01bf c02a 1cbe f9de ccbe c001 14bd
000002f0: a807 78be f31d 6bbe 533e 7ebe b939 803e
00000300: add6 de3e 54dc fa3e 9a1c a13d c372 b13d
00000310: ac6a 8b3e 5851 153f 0abf 2b3c dfd4 f13e
00000320: 9aed 4f3e 0e34 843e 117b 20bf fde8 a03e
00000330: 0e40 8e3e e687 e93e 0846 9abe 21cf 6d3e
00000340: 5433 bd3e 5c81 73be 921a a13d 53f2 9cbd
00000350: 9ee6 ca3d 9236 0a3e 816f a4be f178 003f
00000360: e643 14bf a73e 193e 2ccc 233f 4c89 ec3e
00000370: 571c 90be 3e6c 093f cb01 87be 9b6c 89be
00000380: 3c58 dabd 4536 9bbe 867c d33e b0d3 e7be
00000390: 04c9 023f 1cd0 293e 0452 15bf 6fa0 063f
000003a0: 9e05 30be 03e5 b73e 2bab f13e 3548 19bc
000003b0: a677 0d3f aea5 8bbe d1b7 bc3e bd66 073f
000003c0: f0d1 30be 1a7c a53d e662 893e f666 493e
000003d0: 1b0b d43e 248e 4c3d 7e8c 733e 6300 87be
000003e0: b755 573e 64b6 14bd 1d69 b5be 6194 f93d
000003f0: 7b3d 483e 9ca4 cc3d 91f8 633e 9174 3abe

weight f4 [20, 56]
0.30411416 0.48499256 -0.09640235 -0.033358663 -0.4444948 0.4312066 -0.15701333 0.43707982
-0.2843182 -0.41344798 -0.31279224 0.19879782 -0.23554234 0.07006189 0.4811163 0.3444636
-0.36981001 0.182112 0.010970555 -0.26313853 -0.028222552 -0.06647991 0.21718709 0.023262577
0.37048876 0.46891993 0.14955394 -0.20090112 0.3785637 -0.026504362 0.30580318 0.402571
0.16366248 0.08694644 -0.38831815 -0.19943579 0.3327182 -0.05195483 0.05527509 -0.22487932
-0.010238402 -0.31032357 0.33647394 0.09675542 0.016977819 -0.23857757 -0.40510446 -0.43370128
-0.22982198 -0.13502447 -0.31527466 0.10290172 0.1071685 0.23971954 -0.018238017 -0.18884745
-0.15603486 -0.065999605 0.21188723 -0.06688422 -0.1257322 0.010095599 0.32224837 -0.1713824
-0.023285327 -0.2083775 -0.0033008496 0.34898424 0.15438761 -0.461811 -0.14218473 -0.31285658
-0.03116681 -0.057161316 0.35709137 -0.16487616 0.18674612 -0.38297808 -0.23849893 0.22725305
0.22295244 -0.20203987 -0.41817597 -0.058285665 -0.1437489 0.34449136 0.29905245 -0.12397901
-0.2135655 0.42203748 0.30839938 0.09251808 0.4498671 0.21649297 -0.024803061 0.37840798
0.020191958 0.046183463 -0.39909714 0.18988603 0.18183042 0.3743312 -0.035284758 0.043270234
0.058941193 0.05080009 0.005809514 -0.14412788 0.29679903 -0.23961481 0.3583693 0.4672685
-0.1438069 0.063144386 0.302167 0.032708526 0.050547905 0.16985805 -0.041928116 0.3418226
0.20051472 -0.12998897 -0.11194078 -0.09949269 -0.13368647 0.3523242 -0.3433237 -0.19932945
-0.081634015 0.104325905 -0.32265013 -0.43635666 -0.3780603 -0.26137683 0.44552153 0.15407543
0.46018475 0.47599888 -0.32596412 0.18225136 0.34517738 -0.20527543 0.09625952 -0.24220832
-0.076005965 0.18211275 -0.41607368 -0.26266748 0.28435 -0.057634134 -0.27956194 -0.14708406
0.008977255 -0.33286294 0.0992464 0.40515247 0.031434365 0.44429117 -0.08812899 -0.30545983
-0.34345886 0.17534325 0.060056135 -0.104392216 0.07872787 -0.3672312 0.48269802 -0.44275483
0.010747442 -0.40216935 -0.3492594 0.14679806 -0.23808804 0.07235619 -0.16785705 -0.11126337
-0.30161384 -0.21533091 -0.43761656 0.19254985 0.14654474 -0.01090847 -0.18220007 0.15991876
-0.046612926 0.32815453 0.21517189 -0.08147259 -0.01291957 -0.17425446 -0.17287546 -0.029890692
-0.43440017 0.48140413 -0.32212842 -0.2326796 0.15415846 -0.32585123 0.21349761 0.4357228
0.44714996 0.39240593 -0.027201572 0.4456806 -0.06509626 0.3013802 -0.4517436 0.21447907
0.40710852 -0.32224026 -0.12381615 -0.40556625 0.15375054 0.041820038 -0.130552 -0.14335826
0.31343105 0.3574357 -0.26802942 0.39695957 0.25653434 0.34935892 0.28889766 0.17418358
-0.30221596 -0.3455744 -0.009415604 0.118732244 0.34597397 -0.3850991 0.18439013 -0.042307694
0.11088436 -0.07644395 -0.22078077 -0.38442037 -0.17607479 -0.22446401 -0.3922759 0.45356563
0.21611951 0.081727296 0.09185071 -0.44247425 0.2883241 0.08177267 -0.39432728 0.4397774
-0.42559353 0.41464797 -0.32474372 -0.22084183 0.209167 0.086721756 0.022419361 0.08016289
00000000: dab4 9b3e f250 f83e 986e c5bd 18a3 08bd
00000010: d394 e3be 1dc7 dc3e 1ac8 20be edc8 df3e
00000020: 2892 91be 74af d3be 4e26 a0be a891 4b3e
00000030: 0332 71be 9c7c 8f3d e054 f63e 885d b03e
00000040: bd57 bdbe 917b 3a3e d8bd 333c 18ba 86be
00000050: fb32 e7bc 9e26 88bd 4b66 5e3e 2991 be3c
00000060: b4b0 bd3e 4616 f03e ab24 193e 06b9 4dbe
00000070: 1ad3 c13e ad1f d9bc 3c92 9c3e c91d ce3e
00000080: 2397 273e fa10 b23d a3d1 c6be e538 4cbe
00000090: 0a5a aa3e 96ce 54bd 2268 623d c446 66be
000000a0: f8be 27bc bbe2 9ebe 5046 ac3e b527 c63d
000000b0: 1115 8b3c ae4d 74be da69 cfbe 180e debe
000000c0: 7456 6bbe db43 0abe ae6b a1be 23be d23d
000000d0: 297b db3d 0a79 753e e567 95bc 3a61 41be
000000e0: 9ac7 1fbe cd2a 87bd f7f8 583e 98fa 88bd
000000f0: f1bf 00be 0368 253c bdfd a43e de7e 2fbe
00000100: dfc0 bebc e960 55be 1153 58bb 10ae b23e
00000110: c917 1e3e 7e72 ecbe e098 11be bd2e a0be
00000120: 8a51 ffbc fc21 6abd aed4 b63e 4cd5 28be
00000130: 603a 3f3e b415 c4be 1039 74be 06b5 683e
00000140: a54d 643e 8ae3 4ebe 291b d6be f3bc 6ebd
00000150: e932 13be 2c61 b03e 671d 993e b5e8 fdbd
00000160: eab0 5abe 4c15 d83e 86e6 9d3e 1e7a bd3d
00000170: fb54 e63e 55b0 5d3e ca2f cbbc b1be c13e
00000180: 9b69 a53c df2a 3d3d 7656 ccbe 7c71 423e
00000190: c131 3a3e 57a8 bf3e c086 10bd 213c 313d
000001a0: 526c 713d c113 503d bc5d be3b 4296 13be
000001b0: 0bf6 973e 965d 75be 2e7c b73e d13d ef3e
000001c0: 1e42 13be d851 813d a2b5 9a3e 60f9 053d
000001d0: 520b 4f3d 45ef 2d3e d1bc 2bbd 5f03 af3e
000001e0: bb53 4d3e d41b 05be 3541 e5bd d3c2 cbbd
000001f0: 1be5 08be d663 b43e 20c8 afbe 051d 4cbe
00000200: bc2f a7bd d2a8 d53d 6632 a5be 246a dfbe
00000210: 1f91 c1be 2fd3 85be 661b e43e f3c5 1d3e
00000220: 569d eb3e 20b6 f33e c5e4 a6be 1aa0 3a3e
00000230: 17bb b03e b933 52be b623 c53d 7505 78be
00000240: 04a9 9bbd c47b 3a3e 9c07 d5be 5a7c 86be
00000250: 5396 913e c511 6cbd be22 8fbe 349d 16be
00000260: 5615 133c 036d aabe b241 cb3d 2570 cf3e
00000270: 52c1 003d 227a e33e f97c b4bd 3b65 9cbe
00000280: d7d9 afbe 2e8d 333e 6cfd 753d 96cb d5bd
00000290: 143c a13d ba05 bcbe 3224 f73e c3b0 e2be
000002a0: 0a16 303c 24e9 cdbe 21d2 b2be 3b52 163e
000002b0: 5acd 73be 7b2f 943d b8e2 2bbe 0dde e3bd
000002c0: 216d 9abe b57f 5cbe 470f e0be ca2b 453e
000002d0: d30f 163e 70b9 32bc a892 3abe bec1 233e
000002e0: 32ed 3ebd df03 a83e 0556 5c3e 1adb a6bd
000002f0: 9bac 53bc c36f 32be 4406 31be 53dd f4bc
00000300: b369 debe 9a7a f63e 04ee a4be 9043 6ebe
00000310: b7db 1d3e f9d5 a6be 1e9f 5a3e 0f17 df3e
00000320: d7f0 e43e 6ee9 c83e d5d5 debc 3f30 e43e
00000330: 3051 85bd 814e 9a3e f04a e7be 67a0 5b3e
00000340: 8770 d03e adfc a4be 5293 fdbd 61a6 cfbe
00000350: c870 1d3e 7d4b 2b3d 6caf 05be 82cc 12be
00000360: 097a a03e d001 b73e 273b 89be 493e cb3e
00000370: 7858 833e 2cdf b23e 65ea 933e 2e5d 323e
00000380: 0dbc 9abe 21ef b0be e843 1abc e429 f33d
00000390: 8023 b13e b62b c5be c4d0 3c3e d54a 2dbd
000003a0: 5717 e33d a58e 9cbd 5b14 62be bfd2 c4be
000003b0: f34c 34be e5d9 65be 63d8 c8be c139 e83e
000003c0: 6f4e 5d3e a460 a73d 3a1c bc3d fc8b e2be
000003d0: 379f 933e 6e78 a73d 44e5 c9be 812a e13e
000003e0: 65e7 d9be bd4c d43e cf44 a6be 5c24 62be
000003f0: e02f 563e 2d9b b13d cfa8 b73c 712c a43d
